…
_Septoria_leaf_spot', 'Tomato___Spider_mites Two-spotted_spider_mite', 'Tomato___Target_Spot', 'Tomato___Tomato_Yellow_Leaf_Curl_Virus', 'Tomato___Tomato_mosaic_virus', 'Tomato___healthy']
Number of classes: 38
Number of training images: 70295
Number of validation images: 17572
Number of test images: 33
Labels: ['Grape___Black_rot', 'Blueberry___healthy', 'Peach___Bacterial_spot', 'Orange___Haunglongbing_(Citrus_greening)', 'Tomato___Early_blight', 'Strawberry___healthy', 'Potato___healthy', 'Corn_(maize)___Common_rust_']
Using Apple GPU
Class weights ready!
Using Apple GPU
CustomCNN(
  (conv1): Conv2d(3, 32, kernel_size=(3, 3), stride=(1, 1), padding=(1, 1))
  (bn1): BatchNorm2d(32, eps=1e-05, momentum=0.1, affine=True, track_running_stats=True)
  (pool): MaxPool2d(kernel_size=2, stride=2, padding=0, dilation=1, ceil_mode=False)
  (dropout): Dropout(p=0.25, inplace=False)
  (conv2): Conv2d(32, 64, kernel_size=(3, 3), stride=(1, 1), padding=(1, 1))
  (bn2): BatchNorm2d(64, eps=1e-05, momentum=0.1, affine=True, track_running_stats=True)
  (conv3): Conv2d(64, 128, kernel_size=(3, 3), stride=(1, 1), padding=(1, 1))
  (bn3): BatchNorm2d(128, eps=1e-05, momentum=0.1, affine=True, track_running_stats=True)
  (conv4): Conv2d(128, 256, kernel_size=(3, 3), stride=(1, 1), padding=(1, 1))
  (bn4): BatchNorm2d(256, eps=1e-05, momentum=0.1, affine=True, track_running_stats=True)
  (fc1): Linear(in_features=16384, out_features=512, bias=True)
  (fc2): Linear(in_features=512, out_features=38, bias=True)
  (dropout_fc): Dropout(p=0.5, inplace=False)
)
Using Apple GPU
Device: mps
Classes: 38
Total images: 70295
✅ Model Loaded Successfully

Final Prediction:
Label: Grape___Esca_(Black_Measles)
Confidence: 0.0287

Top 5 Predictions:
Grape___Esca_(Black_Measles) : 0.0287
Potato___healthy : 0.0278
Cherry_(including_sour)___Powdery_mildew : 0.0277
Pepper,_bell___Bacterial_spot : 0.0276
…
